Assets/Models/My Behavior 2.onnx (onnx, 162039 bytes, 7 tensors)

action_model._continuous_distribution.mu.weight f4 [1, 128]
0	0xbcce93b7	-0.02521692
1	0x3d14b37e	0.03630399
2	0xbda7f021	-0.08200098
3	0xbdae7ace	-0.08519517
4	0xbdbfa281	-0.09357167
5	0x3d8d3bf6	0.06896202
6	0xbd074096	-0.03302058
7	0x3da55681	0.0807314
8	0xbd526400	-0.0513649
9	0xbbb9ea58	-0.005673688
10	0xbda05853	-0.078293465
11	0x3d82b17e	0.0638151
12	0x3dae7f03	0.08520319
13	0x3d82f61c	0.06394598
14	0x3c169d6f	0.0091928085
15	0x3d1e7ee0	0.038695216
16	0xbd6f3893	-0.058403563
17	0x3d060a81	0.03272486
18	0x3d3f6166	0.046723746
19	0x3d766617	0.060155954
20	0x3d58a7d9	0.052894447
21	0x3c985910	0.018597156
22	0x3d83d11e	0.0643637
23	0xbd96af59	-0.07357664
24	0xbdab21e0	-0.083560705
25	0x3d814b2c	0.06313166
26	0xbd99629e	-0.07489513
27	0x3bb48c32	0.0055098766
28	0x3d41f308	0.047350913
29	0x3d874303	0.06604578
30	0xbd42a1eb	-0.0475177
31	0xbda60225	-0.08105878
32	0x3dd70b55	0.10500208
33	0x3d52a9b7	0.051431384
34	0xbdc79cef	-0.097467296
35	0xbd94949e	-0.07254909
36	0xbd281513	-0.041035723
37	0xbdad5bf2	-0.08464803
38	0x3d1d7dcd	0.03845005
39	0x3d6ebda8	0.05828634
40	0x3d11c612	0.035589285
41	0xbd865ad2	-0.06560291
42	0xbd86b7ec	-0.06578049
43	0xb9e4fe73	-0.00043677128
44	0x3d1d1bc3	0.038356554
45	0xbd645ee5	-0.05575456
46	0x3d74e1bc	0.05978559
47	0xbd9f5622	-0.077801004
48	0xbd32d9cb	-0.043664735
49	0xbd275686	-0.040854
50	0xbda601e9	-0.08105833
51	0x3cf37ee7	0.029723598
52	0x3dc51824	0.09623745
53	0xbd99940e	-0.07498942
54	0x3db57362	0.08859898
55	0x3dc26fa9	0.09493954
56	0xbc4a4fbe	-0.012348114
57	0xbd1f17d8	-0.0388411
58	0xbd5a70f6	-0.053330384
59	0xbdef01fc	-0.116703
60	0xbdd6b570	-0.10483825
61	0xbda681e4	-0.081302434
62	0x3d098dda	0.033582546
63	0x3d7430ee	0.059616975
64	0x3bc959d7	0.006144743
65	0xbd2eb9b1	-0.042657558
66	0xbda5f54d	-0.08103428
67	0x3d8c4052	0.068482056
68	0x3d444c16	0.047924124
69	0xbd5288d1	-0.05140001
70	0x3d27dc95	0.040981848
71	0x3ce0676c	0.027393065
72	0xbd91fc36	-0.071281835
73	0x3ce2f6b9	0.027705537
74	0xbc465ccf	-0.012107088
75	0x3d99bbee	0.07506548
76	0xbbd36339	-0.0064510372
77	0xbdaa3c9c	-0.083123416
78	0x3bb4387f	0.005499899
79	0xbd61faf4	-0.05517097
80	0x3df147fa	0.117813066
81	0x3d6997ee	0.057029657
82	0x3da4cd3e	0.08046959
83	0x3dd59efb	0.10430714
84	0x3d7a937b	0.061175805
85	0xbd92f452	-0.07175507
86	0x3d2c04b8	0.041996688
87	0x3d918dfa	0.07107158
88	0xbda34104	-0.07971385
89	0xbd332276	-0.043734036
90	0x3da7dde0	0.08196616
91	0xbd6f4671	-0.058416788
92	0xbbbde165	-0.0057946914
93	0x3c6b9079	0.014377707
94	0xbc93f07b	-0.018059006
95	0x3c71b6a6	0.014753019
96	0xbd6ba888	-0.05753377
97	0xbd22f6b0	-0.03978604
98	0xbd76e221	-0.060274247
99	0xbb1bdb47	-0.0023781823
100	0xbd80caf5	-0.06288711
101	0x3d997c3a	0.074943975
102	0xbd197384	-0.03746368
103	0xbda9fa63	-0.082997106
104	0xbd9ae4ff	-0.07563209
105	0xbd48ddf6	-0.049039803
106	0xbc1b3c88	-0.009474881
107	0x3c295b2b	0.010336678
108	0x3da2d8e5	0.079515256
109	0x3d03e1d4	0.03219779
110	0xbdc10f32	-0.094267264
111	0x3d84517d	0.06460855
112	0x3d78c931	0.060738746
113	0x3cd7ae36	0.026328187
114	0x3d721604	0.059103027
115	0x3d5192d3	0.051165413
116	0x3d65d65b	0.05611263
117	0x3c56b3dd	0.013104406
118	0x3d859833	0.0652317
119	0x3daf919d	0.085726954
120	0x3d827031	0.06369055
121	0x3d3e9a4a	0.04653386
122	0xbdd4f721	-0.103986986
123	0x3d86e9f5	0.065875925
124	0xbd88b257	-0.066746406
125	0xbd9189da	-0.07106371
126	0x3d734f86	0.05940201
127	0xbd3373d8	-0.04381165

action_model._discrete_distribution.branches.0.bias f4 [2]
0	0xbaf7c947	-0.001890459
1	0x3af7c955	0.0018904606

action_model._discrete_distribution.branches.0.weight f4 [2, 128]
0	0x3c13b4b0	0.009015247
1	0x3c55a8ad	0.013040704
2	0x3c61fcba	0.013793165
3	0x3c93588b	0.017986557
4	0x3cbcf28c	0.023064874
5	0xbbf3d9fb	-0.007441757
6	0x3a6e7ac2	0.0009097272
7	0x3c4d5a8c	0.012533795
8	0x3c463a80	0.012098908
9	0x3cafccd5	0.021459976
10	0x3cb3acfd	0.021933073
11	0x3c8c6417	0.01713757
12	0x3abd738d	0.0014453992
13	0x3ca0a874	0.019611575
14	0x3ce610ff	0.028084276
15	0x3cad15c8	0.02112855
16	0x3b7f8d59	0.0038994162
17	0x3c640589	0.013917335
18	0x3ca74f46	0.020423543
19	0x3d13db49	0.0360978
20	0x3c2bfe72	0.010497676
21	0x3c14af75	0.009075035
22	0x3c35874d	0.0110796215
23	0x3d125a69	0.035730753
24	0xbbd9e223	-0.006649272
25	0x3b8d9974	0.0043212716
26	0x3c809415	0.015695611
27	0x3c9bef5c	0.019035034
28	0x3d1a47c3	0.037666094
29	0x3c3e50b5	0.011615922
30	0x3bbdc36b	0.005791118
31	0x3c6d81b1	0.014496253
32	0x3b97e470	0.004635386
33	0x3ca39a14	0.019970931
34	0x3cce8d49	0.025213854
35	0x3cbe94e8	0.023264363
36	0x3babf876	0.0052481247
37	0xbc8bbf34	-0.017058946
38	0x3bc1a10f	0.0059090923
39	0x3bd89be8	0.0066103823
40	0x3cac0552	0.02099863
41	0x3c919b2a	0.017774183
42	0x3d0add51	0.03390247
43	0xbcee97c4	-0.029125102
44	0xbcb25d5d	-0.021773035
45	0xbc12f46b	-0.008969407
46	0x3bb977d5	0.005660037
47	0x3cc21246	0.023690354
48	0xbd03231c	-0.032015905
49	0xbbfbabdb	-0.007680399
50	0x3d2a00d2	0.04150469
51	0x3c456b3d	0.012049493
52	0x3ba970ea	0.005170931
53	0x3cc1d7b4	0.023662426
54	0x3c434c5b	0.01192006
55	0x3b9ed395	0.004847
56	0x3cd74dc2	0.026282195
57	0x3d1ee130	0.038788974
58	0xbcbaafe0	-0.022788942
59	0xbc9540f2	-0.018219445
60	0x3d148cac	0.036266968
61	0x3d3aee87	0.045637634
62	0xbc8dc0f1	-0.017303916
63	0x3c7c9f96	0.015418908
64	0xbd1b0bd0	-0.037853062
65	0x3b195b04	0.0023400197
66	0xbb9bd87e	-0.0047560325
67	0x3bc7777e	0.0060872426
68	0x3c2eef68	0.010677196
69	0x3c30a9ab	0.0107826395
70	0x3bbede3e	0.005824833
71	0x3d03cf79	0.032180283
72	0x3c716e6d	0.0147358
73	0xbc1b26cd	-0.0094697
74	0xbc832816	-0.016010325
75	0x3b63af7c	0.0034742048
76	0x3cb731e5	0.022362659
77	0x3c2c6989	0.010523208
78	0xbc971bb6	-0.01844583
79	0x3d57171e	0.05251228
80	0x3cb83f23	0.022491043
81	0xbba751ca	-0.0051061856
82	0x3c09d6ac	0.008412998
83	0x3cb76d4e	0.022390988
84	0x3ae42b84	0.0017407988
85	0x3d32635a	0.04355178
86	0x3c36c935	0.01115637
87	0x3a10297e	0.0005499347
88	0xbcf5bec9	-0.0299982
89	0x3c91af2c	0.017783724
90	0x3c4a7f43	0.012359443
91	0x3d6a8b28	0.057261616
92	0x3c9773c8	0.018487826
93	0x3c613707	0.01374603
94	0xbc85e02f	-0.01634225
95	0xbd0e6654	-0.034765556
96	0x3bf3445c	0.0074239206
97	0x3c886b09	0.0166526
98	0x3d10ec77	0.03538176
99	0xbc0ed3bb	-0.008717473
100	0xbc1489cd	-0.009066057
101	0xbcbc865a	-0.023013283
102	0x3c807d6a	0.015684802
103	0x3d1edeeb	0.03878681
104	0x3cc09102	0.023506645
105	0x3c7932b1	0.01520984
106	0xbb262047	-0.0025348829
107	0x3d15aa05	0.036539096
108	0xba9800bb	-0.0011596897
109	0xbc781bd0	-0.01514335
110	0x3d260f2c	0.040541813
111	0x3c589248	0.01321847
112	0xbb7f0dd5	-0.0038918157
113	0x3bc93a85	0.0061410093
114	0x3cd89725	0.026439259
115	0xbb2f7175	-0.0026770507
116	0x3cfae02c	0.030624472
117	0x3c3b89c0	0.011446416
118	0x3b8fc799	0.0043878076
119	0x3c8256e6	0.015910577
120	0x38758b43	5.854225e-05
121	0x3cd1394a	0.025540013
122	0x3d53904a	0.051651277
123	0x3b0ce54f	0.0021498983
124	0x3d17366d	0.03691714
125	0x3cbfe22a	0.023423273
126	0x3ce10f4e	0.027473118
127	0x3cc11911	0.023571523
128	0xbc04213e	-0.008064566
129	0xbccc902e	-0.024971094
130	0xbc750ef4	-0.014957178
131	0xbb9c5a94	-0.00477154
132	0xbc71a171	-0.014747963
133	0xbbd2652b	-0.0064207516
134	0xbb9591d6	-0.004564504
135	0xbd25e266	-0.040499114
136	0xbc7f8815	-0.015596409
137	0xbcba61fe	-0.022751804
138	0xbd0725d4	-0.03299506
139	0xbbc18c9e	-0.0059066555
140	0xbc82d154	-0.015968956
141	0xbc4ab1f6	-0.012371531
142	0xbc25eef7	-0.010127774
143	0xbcd24be7	-0.025670959
144	0xbc201b45	-0.009772127
145	0xbcaf0d70	-0.021368712
146	0xbc1ff200	-0.009762287
147	0xbcae17ec	-0.021251641
148	0xbb20a781	-0.0024513903
149	0xbc1ee5a5	-0.009698306
150	0xbaec37d8	-0.0018022014
151	0xbc44782f	-0.011991545
152	0x3ca12deb	0.019675216
153	0xbc036b54	-0.0080211945
154	0xbb740d72	-0.003723946
155	0xbbd88faf	-0.0066089253
156	0xbd18af69	-0.03727666
157	0xbbdbccac	-0.0067077484
158	0x3c41c1d4	0.011825997
159	0xbd0a1420	-0.0337106
160	0x3bbc982b	0.0057554445
161	0xbca56889	-0.020191448
162	0xbc8af59e	-0.016962823
163	0xbc3b999f	-0.0114502
164	0xbc115f98	-0.008872889
165	0x3b0d9e8e	0.0021609399
166	0xbbf9c407	-0.0076222452
167	0xbc9ef48a	-0.019403715
168	0xbcc86bb3	-0.024465417
169	0xba372295	-0.0006986049
170	0xbc2088b8	-0.009798221
171	0x3ca1f7cd	0.019771481
172	0xbb5e4bf8	-0.0033919793
173	0x3cd8c6f5	0.026462058
174	0xbc8b445d	-0.017000372
175	0xbce58f3a	-0.028022397
176	0xbb986562	-0.0046507576
177	0xbc1a3a7c	-0.009413358
178	0xbd0194bc	-0.031635985
179	0x3b1269a0	0.002234079
180	0x3c37593b	0.011190708
181	0xbc316943	-0.010828319
182	0x3b6fccba	0.0036590532
183	0x3ba498c0	0.005023092
184	0xbc64d80a	-0.013967523
185	0xbce8948c	-0.028391145
186	0x3cb8f99f	0.022579966
187	0x3caddc1c	0.02122312
188	0xbd4c8240	-0.049928904
189	0xbd2d3b14	-0.04229267
190	0x3bbb5c1a	0.0057177665
191	0xbad76c91	-0.0016435554
192	0x3d2d935b	0.042376857
193	0x3b7daeac	0.003870885
194	0xbc7d430f	-0.015457883
195	0xbc51bc88	-0.012801297
196	0xbbcf3f14	-0.006324658
197	0xbcd1f5fa	-0.025629986
198	0xbc569245	-0.013096397
199	0xbd43d6f3	-0.047812413
200	0xbd0081cb	-0.03137378
201	0xbbb123aa	-0.005405863
202	0x3ca90a09	0.020634668
203	0xbc25e81a	-0.010126138
204	0xbcf03302	-0.029321197
205	0xbbf2bf94	-0.007408092
206	0x3c763532	0.015027331
207	0xbd4a7ba1	-0.049434308
208	0xbc7bc541	-0.015366853
209	0xbc0367b4	-0.00802033
210	0x3bbb7158	0.0057202987
211	0xbc19dfb5	-0.009391715
212	0x3c2e1e84	0.010627393
213	0xbcbf6bd9	-0.023366855
214	0x3b0b92f4	0.0021297308
215	0x3c61eb1e	0.013788966
216	0x3c90d32d	0.017678821
217	0xbc5d2146	-0.013496703
218	0xbc8e2b56	-0.017354649
219	0xbd64c18c	-0.055848643
220	0xbc601b3d	-0.013678369
221	0xbbb3aa1d	-0.0054829256
222	0x3c8f2c75	0.017477253
223	0x3c5cfe6f	0.013488396
224	0x3b07418c	0.0020638434
225	0x3c6ac397	0.014328859
226	0xbd053912	-0.03252513
227	0xbb08113a	-0.002076222
228	0x3c334042	0.010940613
229	0x3c12248a	0.008919844
230	0xbceab32a	-0.028649885
231	0xbd31bac0	-0.04339099
232	0xbc98cd52	-0.018652592
233	0xbb37892c	-0.0028005345
234	0xbc339cd4	-0.010962684
235	0xbcc5bd95	-0.024138251
236	0x3b4c99c6	0.0031219586
237	0x3bac5f3a	0.0052603753
238	0xbcf5278d	-0.029926086
239	0xbb539ac4	-0.0032288292
240	0x3c03c102	0.008041622
241	0xbbe81966	-0.007083106
242	0xbd0a8a3e	-0.033823244
243	0x3ae9f874	0.0017850534
244	0xbcb4d58f	-0.022074489
245	0x391183e4	0.0001387741
246	0x3be494e1	0.0069757556
247	0xbcac3619	-0.02102189
248	0xbc54b028	-0.012981452
249	0xbcc6f2cb	-0.024285695
250	0xbd0b8a28	-0.034067303
251	0xbc260d1f	-0.010134964
252	0xbd15ee24	-0.03660406
253	0xbd0cdc5e	-0.034389846
254	0xba0ce72f	-0.0005375025
255	0xbd0a725c	-0.033800468

network_body._body_endoder.seq_layers.0.bias f4 [128]
0	0x3c7380ee	0.014862282
1	0xbc59cf6c	-0.013294082
2	0x3cc7dd71	0.024397584
3	0x3c8435cd	0.016138935
4	0x3c37d536	0.011220267
5	0x3b65e261	0.003507756
6	0x3c3a6f2d	0.011379045
7	0x3c7b843c	0.015351351
8	0x3d1c2397	0.03811988
9	0x3c4ee97e	0.012628911
10	0x3c369b87	0.011145479
11	0x3c6f36ec	0.014600497
12	0xba9d4234	-0.001199788
13	0x3ca955b9	0.020670759
14	0x3c835fc1	0.01603687
15	0x3c77b3d8	0.015118562
16	0x3c9f1689	0.019419925
17	0x3c561033	0.013065386
18	0x3cbcd3b9	0.023050176
19	0x3d335469	0.04378167
20	0x3ca3b7b8	0.019985065
21	0xbc14f8ad	-0.009092492
22	0x3bb53692	0.005530187
23	0xbb0ec6ff	-0.0021786091
24	0x3bd17a4e	0.0063927537
25	0x3b075775	0.0020651494
26	0x3be7ea1c	0.0070774686
27	0x3c9061c0	0.017624736
28	0x3c82dae8	0.015973523
29	0x3be66afe	0.0070317974
30	0xb9f0fd8b	-0.0004596527
31	0x3a4f1c4d	0.00079006405
32	0x3c37dac1	0.011221589
33	0x3d09ff92	0.033690996
34	0x3cb7f79c	0.022456937
35	0x3cc2ece0	0.023794591
36	0x3c5b3b5b	0.013380851
37	0x3c05a60e	0.008157266
38	0x3bcf0774	0.006318027
39	0x3c282d76	0.010264745
40	0x3ce68faf	0.028144686
41	0x3c56e5c4	0.013116304
42	0xbb6372fe	-0.0034705992
43	0x3c970063	0.018432802
44	0x3cfd5225	0.030922959
45	0x3c3c5d4a	0.011496851
46	0xbcabe4d5	-0.020983139
47	0x3c1c4342	0.00953752
48	0x3c2cabf4	0.010539044
49	0x3c2d28c5	0.010568802
50	0xba168a53	-0.0005742658
51	0xbb3d0fa3	-0.0028848432
52	0xbb4d94d6	-0.003136923
53	0x3d543fc6	0.05181863
54	0x3c8d53ec	0.017251931
55	0x3c944231	0.018097969
56	0x3c054d72	0.00813614
57	0x3c034f2f	0.008014484
58	0x3bcb5bcf	0.006206013
59	0x3bb9b912	0.005667814
60	0x3d05efba	0.032699324
61	0x3a95a422	0.0011416713
62	0xbc6df248	-0.014523096
63	0x3c7875b6	0.015164783
64	0x3bb0ee9e	0.005399539
65	0x3c27d456	0.010243496
66	0x3c5758d0	0.013143733
67	0xbbcee127	-0.0063134613
68	0x3c8408c4	0.016117461
69	0x3c5c85a5	0.013459598
70	0x3c87bd06	0.016569626
71	0xbc82c50f	-0.015963105
72	0x3c507828	0.01272396
73	0x3cd7ab27	0.026326729
74	0x3c4084d5	0.01175042
75	0x3c166ede	0.009181706
76	0x3cabe143	0.020981437
77	0x3ca3b1b2	0.019982193
78	0xbc8ef89a	-0.017452527
79	0xbaee5d95	-0.0018185849
80	0x3a180cc3	0.00058002415
81	0x3c882349	0.016618388
82	0x3c7269ac	0.014795702
83	0x3c342f4d	0.0109976055
84	0x3c418c0b	0.011813174
85	0x3b08374d	0.0020784915
86	0xbbb88ce1	-0.0056320284
87	0x3b25046c	0.0025179638
88	0x3c72660a	0.014794836
89	0x3cf7bec9	0.03024234
90	0xbc3bf0ef	-0.011471017
91	0x3c00f554	0.007870991
92	0x3cb28d81	0.02179599
93	0x3c65535f	0.013996928
94	0x3cb67eb1	0.022277208
95	0xbc414558	-0.011796318
96	0x3b8bff26	0.0042723594
97	0x3c637fa0	0.013885409
98	0x3cd4aaa3	0.025960272
99	0x3b86f38c	0.0041183885
100	0xbb798fea	-0.0038080164
101	0xbc4174f1	-0.011807666
102	0x3c28405f	0.0102692535
103	0x3cadab0a	0.021199722
104	0x3bf350c4	0.0074253995
105	0x3c559154	0.013035137
106	0x3d433552	0.047658272
107	0x3c544109	0.012954959
108	0x3b963226	0.004583615
109	0x3cb99f98	0.022659108
110	0x3cc00664	0.023440547
111	0x3ca6c542	0.020357732
112	0x3c6afd15	0.014342566
113	0x3bd155cf	0.006388403
114	0x3d686c05	0.05674364
115	0x3c845287	0.016152633
116	0x3c8835e6	0.016627263
117	0xbaaac715	-0.0013029302
118	0xbb5692f7	-0.0032741406
119	0x3c79f5e8	0.0152563825
120	0x3c28a562	0.010293337
121	0xbc3f501a	-0.011676813
122	0x3bb7d364	0.0056099165
123	0x3d164d3d	0.036694754
124	0x3d3eae04	0.046552673
125	0xba827685	-0.0009953534
126	0xb9f11c4a	-0.0004598818
127	0x3c46e0b8	0.012138538

network_body._body_endoder.seq_layers.0.weight f4 [128, 177]
0	0xbde9c8c0	-0.11415243
1	0x3dea395a	0.1143672
2	0x3d68ed1a	0.056866743
3	0x3cb05101	0.021523
4	0xbd193f10	-0.037413657
5	0xbce7f7a3	-0.028316325
6	0x3dda558e	0.106608495
7	0x3d98ae48	0.074551165
8	0xbe00f987	-0.12595187
9	0x3c282e00	0.0102648735
10	0x3dfd7958	0.1237666
11	0x3db40cbf	0.087914936
12	0xbd847c38	-0.06469005
13	0xbcea373d	-0.028590793
14	0xbbedb26e	-0.0072539365
15	0x3dbcce88	0.0921908
16	0xbdce931c	-0.10086653
17	0x3ca8d43a	0.02060901
18	0x3dc79e5f	0.09747004
19	0x3d147047	0.03623989
20	0xbc2be3d0	-0.010491326
21	0x3c38eead	0.0112873735
22	0xbb8cc8b6	-0.0042963875
23	0xbd8869d2	-0.066608086
24	0xbd6dcd3d	-0.05805706
25	0x3d20c9d7	0.03925499
26	0xbd9e0d8b	-0.07717427
27	0xbe2080ec	-0.1567418
28	0x3d84f34a	0.06491716
29	0xbd3a918e	-0.045548968
30	0x3d916b40	0.071005344
31	0x3cd1ea7a	0.025624502
32	0xbd7769f7	-0.06040379
33	0xbda2af8d	-0.0794364
34	0x3cd5ba30	0.026089758
35	0x3d7e3d08	0.062069923
36	0xbd26ae02	-0.04069329
37	0x3e02eb0e	0.12784979
38	0x3dc81f7b	0.097716294
39	0x3ddb0f24	0.10696247
40	0xbe534f8b	-0.20635812
41	0xbe29488d	-0.16531582
42	0x3dc55522	0.096353784
43	0x3d32ac61	0.043621425
44	0x3dad0a24	0.084492
45	0x3cb7bf94	0.022430219
46	0x3e0ca75f	0.13735722
47	0xbacd7307	-0.001567454
48	0x3e55514f	0.20831798
49	0xbde27051	-0.11056579
50	0xbe0a43ea	-0.1350247
51	0x3cc61192	0.0241783
52	0xbd0d0ac2	-0.034434088
53	0x3c9e9e1a	0.019362498
54	0xbd38ec35	-0.04514714
55	0x3ca3ca29	0.019993858
56	0x3db54fbe	0.088531
57	0x3e3624e4	0.1778751
58	0xbdda8d2b	-0.10671457
59	0xbdea607c	-0.11444184
60	0x3d597ba1	0.053096417
61	0x3e1febb5	0.15617259
62	0xbdf4cd50	-0.11953223
63	0x3d9f9c6c	0.07793507
64	0x3d9b41f2	0.075809374
65	0xbc67963e	-0.014134942
66	0xbdc7f728	-0.09763938
67	0xbe10dab6	-0.14145932
68	0x3e3629e7	0.17789422
69	0xbdb26f50	-0.087126374
70	0xbd5f5ac5	-0.054529924
71	0x3c984947	0.018589629
72	0x3bfc88bf	0.007706731
73	0x3e1d8ab1	0.15384938
74	0x3d453e75	0.048155267
75	0x3da988b4	0.08278027
76	0x3ddbb845	0.10728506
77	0xbc584bc6	-0.01320166
78	0x3c96c569	0.01840468
79	0xbc449727	-0.011998928
80	0x3e5e95d3	0.21736841
81	0xbdc431ec	-0.09579834
82	0xbd0808e8	-0.03321162
83	0x3e1f464b	0.15554158
84	0x3d13955d	0.036031116
85	0x3b10f1fc	0.002211689
86	0x3da050b1	0.07827891
87	0xbdb92cc8	-0.090417445
88	0x3c31ce06	0.0108523425
89	0xbe282c9b	-0.16423266
90	0x3cd02cbd	0.025411958
91	0x3d9b4a39	0.07582516
92	0x3ddd8615	0.1081659
93	0x3e199c43	0.15001015
94	0x3e4c01e1	0.19922592
95	0xbd0ea602	-0.034826286
96	0x3c19d766	0.009389734
97	0xbdd49771	-0.10380448
98	0x3d19fd70	0.037595212
99	0x3c42b0c6	0.011882966
100	0xbc3c5d25	-0.011496817
101	0x3a036381	0.00050120807
102	0x3e5b9dcd	0.21446915
103	0xbd132648	-0.03592518
104	0xbcf8fab2	-0.030392978
105	0x3c9757d7	0.018474502
106	0x3d0f423e	0.034975283
107	0x3cbfaa10	0.023396522
108	0x3df159bb	0.11784693
109	0x3bdffa02	0.006835223
110	0x3deae628	0.1146968
111	0x3a9645a2	0.0011464844
112	0x39b32620	0.00034169946
113	0xbcab181a	-0.020885516
114	0x3c26c6ce	0.010179235
115	0x3cc9d802	0.024639133
116	0x3d979648	0.07401711
117	0x3d28676c	0.041114256
118	0xbd0d00e4	-0.034424677
119	0x3d9298b4	0.07158032
120	0xbdef49f5	-0.11684028
121	0xbdcbc1ab	-0.099490486
122	0xbd01cb84	-0.03168823
123	0x3c43f442	0.011960091
124	0xbc01e2d9	-0.00792762
125	0x3d6b491b	0.057442766
126	0xbafff32a	-0.0019527425
127	0xbe022af4	-0.12711698
128	0xbe838365	-0.25686184
129	0xbe09caf7	-0.13456331
130	0xbdb6f07c	-0.089325875
131	0xbd04a46e	-0.032383375
132	0x3d5c8388	0.053836375
133	0x3c052a95	0.008127828
134	0x3d8f9bc5	0.070121326
135	0x3ce68dae	0.02814373
136	0xbc942cf2	-0.018087838
137	0x3bb99144	0.005663069
138	0xbae86cdf	-0.0017732641
139	0x3c59d367	0.013295031
140	0xbdc82afd	-0.09773824
141	0x3dbb90a0	0.091584444
142	0xbc0a8351	-0.00845416
143	0x3dc783ff	0.09741973
144	0x3b334bcc	0.002735841
145	0xbce973db	-0.028497627
146	0xbc5b888f	-0.013399257
147	0xbd41a23e	-0.047273867
148	0x3db7b6b3	0.08970394
149	0x3d200804	0.039070144
150	0x3d7b4f00	0.061354637
151	0x3da98eb4	0.082791716
152	0xbcb83616	-0.022486728
153	0xbe3ebb08	-0.18626034
154	0xbc844c62	-0.016149703
155	0xbcfac72f	-0.030612556
156	0xbd7ef73b	-0.062247496
157	0x3e26ac18	0.16276586
158	0x3d0ffdc0	0.035154104
159	0x3e047481	0.12935068
160	0x3df09835	0.11747781
161	0xbdb24c7d	-0.08705995
162	0x3c4af85c	0.012388315
163	0x3bf734df	0.0075441445
164	0x3e081302	0.13288501
165	0x3b30925a	0.00269427
166	0x3d774942	0.0603726
167	0x3d40a61e	0.04703342
168	0xbe744125	-0.23852976
169	0x3e0ed2b0	0.13947558
170	0xbc97a30a	-0.01851036
171	0x3cc74d71	0.02432892
172	0x3cb6053e	0.022219297
173	0x3cabb208	0.020958915
174	0xbe47060b	-0.19435899
175	0xbd228c9c	-0.039684877
176	0x3cf55127	0.029945923
177	0x3dd67caf	0.10473
178	0xbdfa77dd	-0.12229893
179	0xbd089043	-0.033340704
180	0x3cbcf9ec	0.02306839
181	0x3adc2890	0.0016796757
182	0x3d3623c0	0.044467688
183	0xbc9ee76a	-0.019397456
184	0xbdfb943e	-0.12284134
185	0x3e228438	0.1587075
186	0x3cf9d166	0.030495357
187	0xbde3ff32	-0.11132659
188	0x3dc4e0d3	0.09613194
189	0xbcd3f13c	-0.025871865
190	0x3e15f3d9	0.14643802
191	0x3d94a752	0.07258476
192	0x3d871a80	0.06596851
193	0x3ce8864f	0.028384356
194	0xbd3df4ac	-0.046375915
195	0x3c0b812c	0.008514684
196	0x3da395e1	0.079875715
197	0x3e6b9278	0.23005092
198	0xbca40cf8	-0.020025715
199	0xbe3f4ae4	-0.18680912
200	0x3da4dee3	0.08050325
201	0x3e4ea832	0.20181349
202	0x3d6a9856	0.057274185
203	0x3c23af3e	0.009990511
204	0x3dcbce26	0.09951429
205	0x3e6ad46b	0.22932594
206	0x3d578dc4	0.052625433
207	0x3d3f829a	0.04675541
208	0xbda94221	-0.08264566
209	0x3d2ff44e	0.042957596
210	0x3ce0fea2	0.027465168
211	0x3ae8c955	0.0017760197
212	0x3c0ccf77	0.008594385
213	0x3e177287	0.14789782
214	0xbcf59863	-0.02997989
215	0x3d7fae02	0.062421806
216	0xbc49388c	-0.012281548
217	0x3d1ef8ba	0.038811423
218	0x3ccbac17	0.024862332
219	0x3e343ff0	0.17602515
220	0x3d99c73a	0.075087026
221	0x3dd33aee	0.10313974
222	0x3c4d8507	0.012543923
223	0xbd2b82b1	-0.041872684
224	0xbdfb54b8	-0.12272018
225	0xbe0fe0fd	-0.1405067
226	0xbdcefc69	-0.10106737
227	0x3de8709b	0.11349603
228	0xbd75f915	-0.060051996
229	0xbdcf643c	-0.1012654
230	0xbd4bde5f	-0.049772616
231	0x3dcf8ad8	0.10133904
232	0x3e1259f7	0.14292131
233	0x3c6ff875	0.014646639
234	0xbc0ad2c2	-0.0084731
235	0x3dde104f	0.10842954
236	0xbc828225	-0.015931198
237	0x3d15a2d7	0.03653225
238	0x3ce7dc00	0.028303146
239	0x3d24e03c	0.04025291
240	0xbddb567a	-0.107098535
241	0xbcf025ba	-0.029314864
242	0x3d73ee5b	0.059553485
243	0x3e086f83	0.13323788
244	0x3de8b34d	0.11362324
245	0xbc2f96c8	-0.010717101
246	0xbceffa98	-0.029294297
247	0x3de7121d	0.11282752
248	0xbda53bbd	-0.08068035
249	0x3defed63	0.117152
250	0x3bc15ad7	0.0059007215
251	0x3d84e4e7	0.06488972
252	0xbd003312	-0.031298704
253	0x3de2127c	0.11038682
254	0x3c4f6d21	0.012660296
255	0xbd04b42e	-0.032398395

network_body._body_endoder.seq_layers.2.bias f4 [128]
0	0x3bd1b249	0.006399427
1	0x3c8423d7	0.016130371
2	0x3c5c2cff	0.013438462
3	0x3c33c88a	0.010973105
4	0x3c6716d7	0.014104567
5	0x3cacc321	0.021089138
6	0x3bbcbb0d	0.005759603
7	0x3ca03942	0.019558553
8	0x3b5eb81d	0.0033984252
9	0x3c762bc1	0.01502508
10	0x3c57f5ea	0.013181189
11	0x3c2a7900	0.010404825
12	0x3c09b2a2	0.008404406
13	0x3c289f9e	0.010291962
14	0x3c7a54f4	0.0152790435
15	0x3b77b3fa	0.0037796483
16	0x3bdf2408	0.006809715
17	0xbb208f70	-0.0024499558
18	0x3b8d9b56	0.004321496
19	0x3c4f23f4	0.012642849
20	0x3be398b7	0.0069456953
21	0xbc16e562	-0.009209963
22	0x3c4b1975	0.012396206
23	0x3c387b66	0.011259889
24	0x3c736846	0.014856404
25	0x3c00fbff	0.007872581
26	0x3c180804	0.009279255
27	0x3bd00b0c	0.006348973
28	0x3c9a08c4	0.018803008
29	0x3ca62293	0.020280158
30	0x3bf8b9ce	0.007590509
31	0x3c68bb78	0.014204852
32	0x3cc47720	0.023982584
33	0x3c5b3802	0.0133800525
34	0x3c839825	0.01606376
35	0x3c63a8d1	0.013895229
36	0x3b357fad	0.002769451
37	0x3c67772a	0.014127532
38	0xbb6e1cb1	-0.003633302
39	0x3c030055	0.007995685
40	0x3b5d10c1	0.003373191
41	0x3bf71d06	0.0075413017
42	0x3be491d0	0.00697539
43	0xbbba59ca	-0.005686973
44	0x3a83e095	0.0010061437
45	0x3c7304b0	0.014832661
46	0x3c4fe192	0.0126880575
47	0x3c56b92b	0.013105671
48	0x3c02f60e	0.007993234
49	0x3b876d83	0.004132928
50	0x3c81bcd7	0.015837116
51	0xbb855bdd	-0.004069789
52	0x3c77e065	0.015129183
53	0x3c894267	0.016755296
54	0x3ca3db12	0.020001922
55	0x3d13cc14	0.036083296
56	0x3ab3d4cd	0.0013720036
57	0x39e6e5c6	0.00044040213
58	0x3c6cace7	0.01444552
59	0x3c987252	0.0186092
60	0x3c3f573a	0.011678511
61	0x3c407194	0.011745829
62	0x3c06348b	0.008191238
63	0x3ba429b3	0.0050098537
64	0x3c499d88	0.012305625
65	0x3b1b71be	0.0023718919
66	0x3cce8aba	0.025212634
67	0x3c124465	0.008927439
68	0x3c050b9f	0.0081204465
69	0x3c251b77	0.010077349
70	0x3c4043b1	0.011734889
71	0x3be80b30	0.007081412
72	0x3c6884b7	0.014191798
73	0x3bc19537	0.0059076804
74	0x3c46c574	0.012132037
75	0x3c6a0ef0	0.014285788
76	0xbbd3fa66	-0.006469059
77	0x3c5e5303	0.013569596
78	0x3c30428c	0.0107580535
79	0x3c2e3c42	0.010634484
80	0x3c9084b4	0.017641403
81	0x3d18f9cb	0.037347596
82	0x3bf9c1b7	0.0076219696
83	0x3cadd81f	0.021221219
84	0x3cb9c239	0.02267562
85	0x3c4ee060	0.012626737
86	0x3bd2d980	0.0064346194
87	0x3c89ec6e	0.016836371
88	0x3c202253	0.0097738085
89	0x3b8a53fe	0.0042214384
90	0x3cafbd3e	0.021452542
91	0x3c0a88a8	0.008455433
92	0xbc712975	-0.014719357
93	0x3b9abe1b	0.0047223694
94	0xbb12cad6	-0.0022398732
95	0x38f8add8	0.000118579424
96	0x3c338360	0.010956615
97	0x3b40ae5d	0.0029400804
98	0x3ca594ba	0.02021252
99	0xbbde7a7e	-0.0067895046
100	0x3be238f3	0.0069037615
101	0x3cba9029	0.022773819
102	0x3b8a1836	0.004214312
103	0x3c8c1b52	0.017102871
104	0x3c1a8ce4	0.009433005
105	0x3c846aed	0.016164267
106	0xbc28167a	-0.010259265
107	0x3c3eab4e	0.011637522
108	0x3c9548b4	0.018223144
109	0x3ba50c29	0.00503685
110	0x3ca3e115	0.020004788
111	0x3c5aa511	0.013345019
112	0x3bb69af9	0.0055726734
113	0xbc1a552e	-0.0094197225
114	0x3cd33bc6	0.025785338
115	0x3bb726be	0.005589335
116	0x3bd2312a	0.006414552
117	0x3c1fc225	0.0097508775
118	0x3cc1bb54	0.023648895
119	0x3c47686f	0.012170895
120	0x3c8cba6b	0.017178735
121	0x3badc345	0.005302819
122	0x3cc9cead	0.024634684
123	0x3c2d728e	0.010586394
124	0x3c3e0f61	0.011600346
125	0x3c1d66a9	0.009606996
126	0x3cad1683	0.021128898
127	0x3c5e0b56	0.013552507

network_body._body_endoder.seq_layers.2.weight f4 [128, 128]
0	0xbd024613	-0.03180511
1	0x3d3f7ddc	0.04675089
2	0x3de25bf1	0.11052693
3	0xbd6ecbde	-0.05829989
4	0x3d0281c2	0.031862028
5	0xbd3c00bc	-0.045899138
6	0xbd0a5869	-0.03377572
7	0x3dcec604	0.10096362
8	0xbdc9ed6f	-0.0985974
9	0xbd92609a	-0.071473315
10	0xbd1293ae	-0.03578537
11	0x3d02a9d2	0.031900235
12	0xbbe248bb	-0.006905643
13	0xbdbda993	-0.09260859
14	0x3d51f59c	0.051259622
15	0xbc0ee6bd	-0.0087220045
16	0x3e1294d0	0.1431458
17	0xbd1d0cb4	-0.038342193
18	0x3d9ce29d	0.076604106
19	0x3e04331a	0.12910119
20	0x3d81a4fd	0.06330297
21	0x3d0594a9	0.032612476
22	0xbd11f282	-0.035631664
23	0x3db279a6	0.08714609
24	0x3d34a5c5	0.044103403
25	0x3dd68f00	0.10476494
26	0xbde03214	-0.10947052
27	0x3d7cc23b	0.06170867
28	0xbe15e178	-0.14636791
29	0xbe16eaac	-0.14737958
30	0xbd5e0681	-0.05420542
31	0x3e00eaba	0.12589541
32	0xbe00e76c	-0.1258828
33	0x3cb157a6	0.02164824
34	0x3c294dae	0.010333462
35	0x3df9945f	0.12186503
36	0x3d1ab062	0.037765868
37	0x3daf661a	0.08564396
38	0xbd1d860b	-0.03845791
39	0x3e34e6f5	0.17666228
40	0xbe496df2	-0.19670847
41	0x3ae6bbf9	0.0017603628
42	0x3db29029	0.087189026
43	0xbe20d87b	-0.15707581
44	0x3d4154bc	0.04719995
45	0x3d99aa3e	0.07503174
46	0x3cbe09ad	0.023197973
47	0xbd7a489d	-0.061104406
48	0xbe458ea1	-0.1929269
49	0x3b930011	0.004486092
50	0x3d0d4bfb	0.03449629
51	0x3d6103f4	0.05493541
52	0xbdfaf3b4	-0.12253514
53	0xbd52c557	-0.05145773
54	0xbcc65b21	-0.024213376
55	0xbb9b1c44	-0.004733594
56	0x3d17044d	0.036869336
57	0x3dd9fb66	0.106436536
58	0x3cc8a7c3	0.024494058
59	0x3b83d244	0.0040228684
60	0x3c33a1bc	0.010963853
61	0xbd912ad5	-0.07088248
62	0xbe48179f	-0.1954026
63	0x3c3f64cb	0.011681746
64	0xbcc3da7a	-0.023907889
65	0x3d5c69b2	0.053811736
66	0x3dd3c1a6	0.1033967
67	0x3df97fb4	0.121825606
68	0x3df6bae6	0.12047367
69	0xbdc4f974	-0.09617892
70	0x3dd0de0d	0.10198603
71	0xbd9bf951	-0.07615913
72	0xbcdd469a	-0.027011205
73	0x3d805de7	0.062679105
74	0x3e230bce	0.15922472
75	0xbdaaa845	-0.08332876
76	0x3d33eeac	0.043928787
77	0x3d99d899	0.07512016
78	0xbdda4da9	-0.10659344
79	0x3d3249ae	0.043527298
80	0x3b3604ff	0.0027773974
81	0xbc37f595	-0.011227985
82	0x3ddb6d29	0.1071418
83	0x3d8e7ff9	0.069580026
84	0xbb5bb7da	-0.0033526332
85	0xbc2fc553	-0.010728198
86	0x3ba2ef95	0.004972408
87	0x3cdb0577	0.026736004
88	0xbc32c890	-0.010912076
89	0xbe321792	-0.17391804
90	0xbe6ab8b6	-0.22922024
91	0xbbe05f56	-0.0068473024
92	0x3dd635e8	0.104595006
93	0xbdf225d3	-0.11823621
94	0xbd4a1f02	-0.049345978
95	0x3cac815c	0.021057777
96	0xbdfece64	-0.1244171
97	0xbd8f5401	-0.06998444
98	0xbdbc3e7f	-0.09191608
99	0xbd8e9e0d	-0.069637395
100	0x3e09ea61	0.13468315
101	0xbe046dbf	-0.1293249
102	0xbdc23b00	-0.094839096
103	0x3dc0ddb9	0.0941729
104	0x3d6e5281	0.05818415
105	0x3d2d669b	0.04233418
106	0xbd532616	-0.051549993
107	0x3dee4c43	0.116356395
108	0xbe2483b5	-0.16065867
109	0x3b24bee2	0.002513819
110	0xbe0342f3	-0.12818508
111	0xbe1af235	-0.15131457
112	0x3db27f9c	0.08715746
113	0x3dc04479	0.0938806
114	0x3cf887ea	0.030338246
115	0xbe2f6253	-0.17127351
116	0xbe0247b8	-0.12722671
117	0x3df8f29b	0.12155648
118	0xbd287143	-0.04112364
119	0x3d77b64f	0.060476597
120	0xbd498262	-0.04919661
121	0x3d84e3d5	0.06488768
122	0xbd964d6e	-0.07338987
123	0xbd8726d8	-0.06599206
124	0xbbfb5ecf	-0.007671214
125	0x3d8e33ee	0.069434986
126	0x3c696240	0.014244616
127	0x3c084f59	0.008319699
128	0x3c54b27b	0.012982006
129	0xbe1c6ba0	-0.1527543
130	0xbe200068	-0.15625155
131	0xbdb2ec5a	-0.08736487
132	0xbdb611d5	-0.0889012
133	0xbdd4d4e2	-0.10392167
134	0x3db307b4	0.08741704
135	0xbd221c80	-0.03957796
136	0x3d853d8e	0.06505881
137	0x3df64aa4	0.12025955
138	0xbcce071f	-0.02514988
139	0xbe1d55a3	-0.15364699
140	0xbd52fbfe	-0.05150985
141	0xbe3970bc	-0.18109411
142	0x3d15bd4f	0.036557492
143	0x3ab7c66e	0.0014020929
144	0x3d361dd8	0.044462055
145	0x3e170722	0.14748815
146	0xbd2794ec	-0.040913507
147	0x3e16cb17	0.1472591
148	0x3e22b24b	0.15888326
149	0x3d93b767	0.072127156
150	0x3c468b16	0.012118122
151	0xbe4d3f8c	-0.20043772
152	0x3ce8f363	0.028436368
153	0xbd540af4	-0.05176826
154	0xbc72adc4	-0.014811937
155	0xbd0a2bdb	-0.03373323
156	0x3d33a436	0.043857776
157	0x3dded284	0.108799964
158	0x3e003b3e	0.12522599
159	0xbe0c246a	-0.13685766
160	0x3db8a08b	0.09014996
161	0xbdc82fb5	-0.097747244
162	0x3c049726	0.008092677
163	0x3dd7c66d	0.105358936
164	0xbd2f2817	-0.042762842
165	0xbda166fb	-0.0788097
166	0x3e22eba7	0.15910207
167	0x3b394b51	0.0028273652
168	0x3dd1851d	0.102304675
169	0x3d8873fa	0.06662746
170	0x3dae9f1c	0.085264415
171	0x3973aa39	0.00023237699
172	0x3d8f23ee	0.06989275
173	0xbe2379bf	-0.15964411
174	0xbd4a93d3	-0.049457382
175	0xbe20962d	-0.15682288
176	0xbdc17310	-0.094457746
177	0xbd95f4ed	-0.073221065
178	0x3dfdc016	0.12390153
179	0x3d548c4b	0.051891606
180	0x3e19d68c	0.1502325
181	0xbdfade34	-0.12249413
182	0xbbbfc72e	-0.0058526015
183	0x3e72ccfb	0.23711006
184	0x3d4db222	0.05021871
185	0x3d0dc701	0.034613613
186	0x3d8c7119	0.06857509
187	0x3dcb996b	0.099413715
188	0xbd9e5048	-0.07730156
189	0x3daa9756	0.08329646
190	0x3d7cfa50	0.061762154
191	0x3b01868b	0.0019764032
192	0x3d1bd06b	0.03804056
193	0xbde47213	-0.111545704
194	0x3d88b4d7	0.066751175
195	0x3cfe1d08	0.031019703
196	0x3db7f2b4	0.08981839
197	0xbc04b3af	-0.0080994805
198	0x3e026f60	0.12737799
199	0xbe32bf6b	-0.17455833
200	0xbd6ee8de	-0.05832755
201	0xbde06afd	-0.109579064
202	0x3c813636	0.01577292
203	0x3e025253	0.12726717
204	0xbc1535b5	-0.009107043
205	0xbce45be3	-0.027875846
206	0x3ddd018a	0.10791309
207	0xbcce203d	-0.025161857
208	0xbd8402e3	-0.06445863
209	0x3d7627cc	0.060096547
210	0xbe48bc56	-0.19603094
211	0xbd2ea7d8	-0.042640537
212	0xbda42b43	-0.08016064
213	0x3dc41b57	0.09575527
214	0x3dc31ba4	0.095267564
215	0xbd43a727	-0.04776683
216	0x3d344635	0.044012267
217	0x3d0353d7	0.032062378
218	0xbe0f57b8	-0.13998306
219	0x3d66e927	0.056374695
220	0x3d867ac4	0.065663844
221	0x3df3544c	0.11881313
222	0x3dcf1c62	0.101128355
223	0xbdc782a0	-0.097417116
224	0x3ce4429f	0.027863799
225	0xbdd5453f	-0.10413598
226	0xbd9af536	-0.075663015
227	0xbc9562d1	-0.018235596
228	0x3de0597f	0.1095457
229	0x3d8bd6b0	0.06828058
230	0xbd0d162d	-0.034444977
231	0xbc8f82be	-0.017518397
232	0x3b035b2b	0.0020043354
233	0x3ddd52fc	0.10806844
234	0x3de04593	0.1095077
235	0xbd62a976	-0.05533739
236	0x3b6caff4	0.0036115618
237	0x3e04ad6b	0.12956779
238	0x3ddc7b9d	0.10765765
239	0x3c95ce0d	0.01828673
240	0xbce29f78	-0.027663931
241	0xb995dddd	-0.00028584796
242	0x3d03dafa	0.032191254
243	0x3d88b808	0.06675726
244	0xbe042069	-0.12902988
245	0xbd2cbf65	-0.042174716
246	0x3d9a9993	0.07548823
247	0xbd79978d	-0.060935546
248	0xbe81d6bb	-0.2535914
249	0x3d8ca0fd	0.068666436
250	0xbc596f1e	-0.013271121
251	0x3c9b327b	0.01894497
252	0x3d952f25	0.07284383
253	0x3e08367d	0.13302036
254	0xbc3a5654	-0.011373121
255	0xbd484ce8	-0.04890147
